额外对比/1qubit 测量算符/1qubit 目标态加 MLP四分类/1qubit 目标态加 四分类 3XYZ/learned_model/1qubit_target2_four_xy_MLP_episode10000_run10_model.pth (torch, 2672 bytes, 4 tensors)

fc1.weight f4 [3, 3]
-6.490669 -0.02148925 0.012009717 0.040788546 0.2842575 0.32464877 6.257641 0.00078178744
0.004687652
00000000: 8fb3 cfc0 390a b0bc 67c4 443c e411 273d
00000010: 338a 913e 5d38 a63e 983e c840 def0 4c3a
00000020: e09a 993b

fc1.bias f4 [3]
4.1808887 -0.5417329 4.1062536
00000000: d7c9 8540 02af 0abf 6e66 8340

fc2.weight f4 [4, 3]
3.6385942 -0.37239435 -6.094121 2.6239898 0.3682092 -0.5359035 -0.5133812 -0.18411313
2.591902 -6.2643204 -0.43989566 3.4349077
00000000: bade 6840 79aa bebe 0a03 c3c0 73ef 2740
00000010: eb85 bc3e f930 09bf f36c 03bf 2788 3cbe
00000020: b9e1 2540 5075 c8c0 013a e1be 87d5 5b40

fc2.bias f4 [4]
-1.4575632 0.6155082 0.8276478 0.19755785
00000000: 6e91 babf f291 1d3f bae0 533f 9b4c 4a3e
