额外对比/1qubit 测量算符/1qubit 目标态一 MLP四分类/1qubit 目标态一 四分类 2YZ/learned_model/1qubit_target1_four_yz_MLP_episode10000_run10_model.pth (torch, 2672 bytes, 4 tensors)

fc1.weight f4 [3, 3]
0	0xbb3ce2d7	-0.002882173
1	0xc0d4dba8	-6.6518135
2	0x4010a47c	2.2600393
3	0xbd871255	-0.065952934
4	0x40afe8e9	5.4971814
5	0x3fff13dc	1.9927936
6	0x3dbca135	0.09210435
7	0x407ea498	3.978796
8	0x3fae34fe	1.3609922

fc1.bias f4 [3]
0	0x40179315	2.3683522
1	0x3fe66be9	1.8001682
2	0x3f97aa08	1.1848764

fc2.weight f4 [4, 3]
0	0xc0be7cb0	-5.9527206
1	0x402902f0	2.6408043
2	0x400f2b31	2.2370112
3	0xbeed0492	-0.4629255
4	0x3ff0b070	1.8803844
5	0x3fb95b26	1.4480941
6	0x4026e8e7	2.6079652
7	0xbee5a356	-0.44851178
8	0xbf0e57d9	-0.55602795
9	0x406014b2	3.5012631
10	0xc0a5f3c8	-5.1860085
11	0xc05ebb67	-3.4801881

fc2.bias f4 [4]
0	0xbf4934f3	-0.7859642
1	0x3f2160ad	0.6303814
2	0x3ef75bbf	0.48312184
3	0xbdbf3ca8	-0.09337741
