1qubit 目标态加/learned_model/1qubit_target2_binary_yz_MLP_episode10000_run3_model.pth (torch, 2680 bytes, 4 tensors)

fc1.weight f4 [4, 4]
000000 c6 12 a9 be 5f ae 8a be 43 13 b7 bd a6 dd 54 be
       -0.33022135 -0.2708616 -0.08939221 -0.20787677
000010 fb 08 42 3d 96 8f 15 3e f1 a5 55 3e a5 d0 ad be
       0.047371846 0.14605555 0.20864083 -0.33948246
000020 44 f2 90 be 13 9e fe be 5b 04 34 3b 3c 3e 93 bd
       -0.28309834 -0.49729976 0.0027468416 -0.07189605
000030 35 7f 07 bf b4 4f 60 bf 9c e2 bf be 89 6d 02 3e
       -0.5292848 -0.8762162 -0.37477577 0.12737097

fc1.bias f4 [4]
000000 33 05 ee bd 7e c0 b4 bc 13 13 22 3f d7 94 97 bd
       -0.116220854 -0.022064444 0.63310355 -0.07401436

fc2.weight f4 [2, 4]
000000 e4 20 07 be c1 12 43 be 80 ea 6b 3e 8d f1 60 bf
       -0.1319614 -0.19050123 0.23038673 -0.8786858
000010 60 83 e0 be 8d f1 7c be 05 e2 21 bf bf 45 2a 3f
       -0.4385023 -0.2470152 -0.63235503 0.66512674

fc2.bias f4 [2]
000000 ed 44 55 be f6 2f ba 3d
       -0.20827074 0.09091179
