1qubit 目标态加/learned_model/1qubit_target2_four_xy_QNN_MLP_episode10000_run10_model.pth (torch, 3132 bytes, 5 tensors)

fc1.weight f4 [4, 4]
00000000: 915c cebe c86c 9fbd 2b47 9f3e e168 a5be
00000010: 9299 9bbe 8eea b0be d829 b73d 1274 86be
00000020: 6cf5 09bf 030e 2ebf 0ba8 fb3c edd0 473e
00000030: 9d5a 4940 db3f 4ec0 f40d 47c0 2c12 2240
-0.40304998 -0.0778442 0.31108984 -0.3230658 -0.30390602 -0.3455395 0.08943528 -0.2626043
-0.5389011 -0.6799013 0.030719778 0.19513293 3.1461556 -3.2226474 -3.1102266 2.5323591

fc1.bias f4 [4]
00000000: 4786 e4bd 2e6b f9be 0dbd 1cbe 74f5 0e40
-0.11158424 -0.48714584 -0.15306492 2.2337313

fc2.weight f4 [4, 4]
00000000: e8dd 39be 10e3 56be be9e 7e3e 0765 a5c0
00000010: 9fab 8dbd f61b ee3e 00e2 543f 47ac ea3e
00000020: 20e1 85bd 8838 aa3d c8ab 96bd 128f 0640
00000030: c0ef ce3e 38dc b7bd a249 c3bd d0c5 4940
-0.18151057 -0.20985055 0.24865243 -5.1685824 -0.069175 0.46505708 0.8315735 0.45834562
-0.0653708 0.08311564 -0.073569834 2.1024823 0.4041729 -0.0897755 -0.09535529 3.1526985

fc2.bias f4 [4]
00000000: ef5d e740 1985 8840 cce9 d3bf 7331 15c1
7.2302165 4.2662473 -1.6555724 -9.324573

qlayer1.weights f4 [1, 4]
00000000: 1167 9240 73c3 4840 5f11 a940 e50b 0940
4.5750813 3.1369293 5.2833705 2.141351
