1qubit 目标态加/learned_model/1qubit_target2_binary_xz_QNN_MLP_episode10000_run3_model.pth (torch, 3205 bytes, 5 tensors)

fc1.weight f4 [4, 4]
0	0xbb5d9d00	-0.0033815503
1	0x3dbdc378	0.09265798
2	0xbea56d0a	-0.32309753
3	0xbe98d63a	-0.29850942
4	0xbe226748	-0.15859711
5	0x3e03e074	0.12878591
6	0x3de77770	0.11302078
7	0x3d5f147f	0.054462906
8	0x3e705333	0.23469238
9	0xc05057f7	-3.255369
10	0xc036745b	-2.8508518
11	0xc04dec0f	-3.2175329
12	0xbe577890	-0.21042085
13	0x3e4ff882	0.20309642
14	0x3dd82fc6	0.10555987
15	0x3e2c5267	0.16828309

fc1.bias f4 [4]
0	0xbef42f70	-0.47692442
1	0xbdc297d9	-0.09501619
2	0x3f53e20d	0.827668
3	0xbe4a2ff3	-0.19744854

fc2.weight f4 [2, 4]
0	0xbdea32b0	-0.11435449
1	0xbed0cca4	-0.40781128
2	0xc06b068f	-3.6722753
3	0xbe2e5636	-0.17025074
4	0xbeda3336	-0.42617196
5	0x3d77e79c	0.060523614
6	0x407d3eda	3.9569612
7	0x3d89497a	0.06703468

fc2.bias f4 [2]
0	0x4049526c	3.1456556
1	0xc03748d2	-2.8638196

qlayer1.weights f4 [1, 4]
0	0x3fc5c1d3	1.5449775
1	0x40c949bd	6.2902513
2	0x40a90ca3	5.2827926
3	0x40a8fe5e	5.2810507
