1qubit 目标态加/learned_model/1qubit_target2_four_xy_MLP_episode10000_run1_model.pth (torch, 2664 bytes, 4 tensors)

fc1.weight f4 [4, 4]
0	0xc03fcedc	-2.9970007
1	0xbcd04f84	-0.025428541
2	0x3e309429	0.17244019
3	0xbd76e7b0	-0.06027955
4	0x3ec47580	0.38370895
5	0xbe42285c	-0.18960708
6	0x3dbc1f98	0.091857135
7	0xbee943b0	-0.45559454
8	0x40aae368	5.3402596
9	0xbc4b0161	-0.0123904655
10	0x3ff81a4b	1.9383024
11	0x400184fe	2.0237422
12	0xc0e95300	-7.291382
13	0xbcaa1d1d	-0.020765835
14	0x3fac7727	1.3473862
15	0x3fe08ea8	1.7543535

fc1.bias f4 [4]
0	0x3e8c1dec	0.2736658
1	0xbede6ccc	-0.4344238
2	0x4001af1a	2.0263124
3	0x3fd7f3ff	1.6871337

fc2.weight f4 [4, 4]
0	0x3ff18696	1.8869197
1	0xbd8bc370	-0.06824386
2	0xc0a89d15	-5.269175
3	0x4089b4b4	4.3033085
4	0x3f62113f	0.88307565
5	0xbecabaaa	-0.39595538
6	0xbe7792ca	-0.2417709
7	0x401ad234	2.4190798
8	0xc00a961e	-2.1654124
9	0x3eee6064	0.46557915
10	0x40047a9b	2.0699832
11	0xbed7ae81	-0.42125323
12	0xbea3dc67	-0.3200409
13	0x3eeea89a	0.46613008
14	0x40371849	2.8608572
15	0xc0c071b5	-6.0138803

fc2.bias f4 [4]
0	0xbf86e9e0	-1.0540123
1	0x3d0bd801	0.034141544
2	0x3f68247b	0.90680665
3	0x3f0767ea	0.52892935
