1qubit 目标态加/learned_model/1qubit_target2_binary_xy_MLP_episode10000_run1_model.pth (torch, 2680 bytes, 4 tensors)

fc1.weight f4 [4, 4]
00000000: b2a9 8c40 59fe 2d3c c7c1 6f3e 2f0e 503f
00000010: 1543 bb3e 9c55 75be b537 6ebe c9a0 56be
00000020: 28aa 6dc0 aa2f 8a3c 5996 163f 0885 133d
00000030: 80f4 d73e 40d8 28be 3091 573d 400a fdbe
4.3957148 0.010619723 0.23413764 0.8127164 0.36574617 -0.23958439 -0.23263438 -0.20959772
-3.7135105 0.016868431 0.5882316 0.03601554 0.42178726 -0.16488743 0.052628696 -0.49421883

fc1.bias f4 [4]
00000000: 7ac1 9d3c 6435 ee3c 5768 043f 7cfa d4be
0.019257296 0.029078193 0.5172171 -0.41597354

fc2.weight f4 [2, 4]
00000000: f73b 46c0 8324 d6bb 96ca 1f40 20cc 80be
00000010: 13aa 4d40 9ae4 5ebe de27 35c0 a83a da3d
-3.09741 -0.0065351143 2.4967399 -0.25155735 3.2135055 -0.21766892 -2.8305583 0.10655719

fc2.bias f4 [2]
00000000: b784 e03e 60f2 ab3d
0.43851253 0.08395839
