1qubit 目标态加/learned_model/1qubit_target2_four_xz_QNN_MLP_episode10000_run10_model.pth (torch, 3132 bytes, 5 tensors)

fc1.weight f4 [4, 4]
0	0xbeaac6cc	-0.33354795
1	0x3e7d7318	0.24750936
2	0x3e99f914	0.30072844
3	0x3ebdaa8e	0.37044185
4	0x401a2b0b	2.4088771
5	0xc039f982	-2.9058537
6	0x3fdd9267	1.7310303
7	0xc0097528	-2.1477757
8	0xbf026bb3	-0.50945586
9	0xc071011c	-3.7656927
10	0x40739e69	3.8065436
11	0xc0608448	-3.5080738
12	0xbea8fa7d	-0.33003607
13	0xbe8e0cea	-0.27744228
14	0x3ef73615	0.4828345
15	0xbe8f69a4	-0.28010285

fc1.bias f4 [4]
0	0xbe6a6f3c	-0.22893995
1	0x3fa44478	1.2833395
2	0x3f802263	1.0010494
3	0xbefce072	-0.49389988

fc2.weight f4 [4, 4]
0	0x3e32fbb4	0.1747883
1	0xc0030291	-2.0470316
2	0x409b2171	4.847832
3	0x3d834cce	0.06411134
4	0xbedf85ec	-0.43656862
5	0x400cfc05	2.202882
6	0xbe9d94c3	-0.3077756
7	0x3d841a5d	0.06450341
8	0x3df906e0	0.121595144
9	0x401e8af1	2.4772303
10	0xc082d5b4	-4.088587
11	0x3eee4bf2	0.46542317
12	0xbe15a550	-0.14613843
13	0xc03c1e68	-2.9393559
14	0xbf4093ed	-0.75225717
15	0xbe46a6b3	-0.19399528

fc2.bias f4 [4]
0	0xc06e88ec	-3.727107
1	0xc0209e3e	-2.5096583
2	0x3f44ca5a	0.76871264
3	0x40b47009	5.638676

qlayer1.weights f4 [1, 4]
0	0x4093c35e	4.6175985
1	0x40c9b73f	6.303619
2	0x4009108b	2.1416347
3	0x40091064	2.1416254
