1qubit 目标态加/learned_model/1qubit_target2_four_xy_MLP_episode10000_run10_model.pth (torch, 2672 bytes, 4 tensors)

fc1.weight f4 [4, 4]
4.8633265 0.008496314 -0.3056331 -0.36624432 -0.43536484 0.22564828 -0.4897678 -0.06860298
6.8948035 0.015485973 0.023241697 0.32387468 5.4943004 0.00028663455 1.5356964 0.68048465
00000000: 5fa0 9b40 2034 0b3c f17b 9cbe 6084 bbbe
00000010: 24e8 debe 5810 673e d8c2 fabe b87f 8cbd
00000020: 3ba2 dc40 e1b8 7d3c 5f65 be3c e7d2 a53e
00000030: 4fd1 af40 7047 9639 b391 c43f 3e34 2e3f

fc1.bias f4 [4]
-1.1108875 -0.3849312 0.539081 1.1456509
00000000: 9031 8ebf b415 c5be 3601 0a3f b0a4 923f

fc2.weight f4 [4, 4]
0.17604843 -0.089092374 -0.41749072 -4.667762 -0.53943944 0.110349536 -4.877255 2.9382527
-3.465821 -0.3038262 2.0634065 2.0404363 3.5809684 0.15863228 4.4537477 -0.08281794
00000000: 0a46 343e 1076 b6bd 58c1 d5be 4e5e 95c0
00000010: b418 0abf f0fe e13d 7912 9cc0 550c 3c40
00000020: 03d0 5dc0 1c8f 9bbe da0e 0440 8296 0240
00000030: 962e 6540 8070 223e 1a85 8e40 749c a9bd

fc2.bias f4 [4]
5.8150487 1.1480864 -2.0610387 -3.9472888
00000000: e114 ba40 7ff4 923f 0fe8 03c0 61a0 7cc0
