1qubit 目标态加/learned_model/1qubit_target2_binary_xz_QNN_episode10000_run2_model.pth (torch, 2977 bytes, 5 tensors)

fc1.weight f4 [4, 4]
00000000: 04c4 b53e c0da ee3c 0cd0 1b3e e6c0 91be
00000010: a2ad 8b3e bcab 1f3e d609 bebe f012 e0be
00000020: be7d cc3e d8d4 a83e 22e0 96be 1e31 8dbe
00000030: c8f2 373e d48b b1be c06f e6bc 1c60 a53e
0.3550111 0.029157043 0.15216082 -0.28467482 0.2728091 0.15592855 -0.3711688 -0.43764448
0.39939684 0.32974887 -0.29467875 -0.27576536 0.17963707 -0.34676993 -0.028129458 0.32299888

fc1.bias f4 [4]
00000000: 4c4c be3e f2ea fb3e 501f 3b3d c845 da3e
0.37167585 0.49202687 0.04568416 0.42631364

fc2.weight f4 [2, 4]
00000000: 7879 63be 3000 7fbe b0ce d2bd e811 d8be
00000010: a0c2 5dbd 801b cabb 98b7 5e3e 5cf3 aebe
-0.22214305 -0.24902415 -0.10293329 -0.4220116 -0.054140687 -0.006167829 0.21749723 -0.34170043

fc2.bias f4 [2]
00000000: 64d7 273e 8699 bebe
0.16390759 -0.37226504

qlayer1.weights f4 [1, 4]
00000000: c195 d13f c8bb 4a40 84c7 8d40 1d04 1c3f
1.6373826 3.1677113 4.430605 0.60943776
