1qubit 目标态加/learned_model/1qubit_target2_four_xy_QNN_episode10000_run2_model.pth (torch, 2959 bytes, 5 tensors)

fc1.weight f4 [4, 4]
0	0xbec38f44	-0.3819524
1	0x3eeff098	0.46863246
2	0xbc0bc740	-0.008531392
3	0x3e04377c	0.1291179
4	0x3e8f451e	0.2798242
5	0xbea840ba	-0.32861882
6	0xbefb870c	-0.4912647
7	0x3e7aff1c	0.24511379
8	0xbe2ed2c4	-0.17072588
9	0xbe89842c	-0.26858652
10	0xbdf73778	-0.12071127
11	0xbeb868d8	-0.3601749
12	0xbe3b33c8	-0.18281472
13	0xbe4e5164	-0.20148236
14	0x3e90c058	0.28271747
15	0x3dd7a230	0.10528982

fc1.bias f4 [4]
0	0xbee4b414	-0.4466864
1	0xbed9b286	-0.42519015
2	0x3e2c5bf8	0.16831958
3	0xbe691b78	-0.22764385

fc2.weight f4 [4, 4]
0	0x3c147280	0.009060502
1	0x3d1cc1d0	0.03827077
2	0x3c838aa0	0.016057312
3	0xbecd9816	-0.40155095
4	0xbd888218	-0.066654384
5	0x3e7eb1ec	0.2487256
6	0x3e5c7d6c	0.2153222
7	0xbec1ed94	-0.3787657
8	0xbec7bb34	-0.39010012
9	0xbe3a25d0	-0.18178487
10	0x3ee290a8	0.4425099
11	0x3e5b8b60	0.21439886
12	0xbed27866	-0.41107482
13	0xbe717de4	-0.2358318
14	0xbe6616e8	-0.22469676
15	0xbdafe500	-0.085886

fc2.bias f4 [4]
0	0x3e8aa3f4	0.2707821
1	0x3e869d22	0.26291758
2	0x3e71f678	0.23629177
3	0x3ef47b9c	0.47750556

qlayer1.weights f4 [1, 4]
0	0x40aa841f	5.328628
1	0x40c9236a	6.285573
2	0x40a90f75	5.283137
3	0x40a90f0f	5.283088
