1qubit 目标态加/learned_model/1qubit_target2_binary_xy_QNN_episode10000_run10_model.pth (torch, 2986 bytes, 5 tensors)

fc1.weight f4 [4, 4]
0.28002805 -0.024384558 0.3595376 0.38053596 -0.030211091 0.4354509 0.40562737 0.039536595
-0.28844255 -0.036550343 0.1392948 -0.24151325 -0.41259432 -0.26918715 0.3118651 -0.33678854
00000000: d65f 8f3e 20c2 c7bc 5015 b83e 9cd5 c23e
00000010: 407d f7bc 6cf3 de3e 64ae cf3e 20f1 213d
00000020: beae 93be d0b5 15bd 4ca3 0e3e 404f 77be
00000030: 903f d3be e6d2 89be c8ac 9f3e 8c6f acbe

fc1.bias f4 [4]
0.31700087 -0.456639 0.29525286 -0.12757367
00000000: f04d a23e 96cc e9be 622b 973e aca2 02be

fc2.weight f4 [2, 4]
0.07258397 0.019625545 -0.09998858 -0.23249793 -0.2256993 -0.48913068 -0.19984108 -0.32685256
00000000: e8a6 943d c0c5 a03c d0c6 ccbd f013 6ebe
00000010: b81d 67be 566f fabe 24a3 4cbe 3859 a7be

fc2.bias f4 [2]
-0.20476025 -0.07183021
00000000: acac 51be b81b 93bd

qlayer1.weights f4 [1, 4]
-1.5050836 6.2849627 0.6054819 1.6683979
00000000: 94a6 c0bf 6a1e c940 dd00 1b3f 108e d53f
