额外对比/1qubit 测量算符/1qubit 目标态一 MLP四分类/1qubit 目标态一 四分类 2XZ/learned_model/1qubit_target1_four_xz_MLP_episode10000_run4_model.pth (torch, 2664 bytes, 4 tensors)

fc1.weight f4 [3, 3]
0	0x3d8e91f3	0.06961431
1	0xc0d906a2	-6.7820597
2	0x400507fa	2.0786119
3	0x3ddd153b	0.10795065
4	0x40d39fa6	6.6132383
5	0x4006b1eb	2.1046093
6	0xbf2b66f5	-0.66953975
7	0x3e862872	0.26202732
8	0x3f26b6fb	0.65122956

fc1.bias f4 [3]
0	0x401e22bb	2.4708698
1	0x401aee54	2.4207964
2	0xbeaa6c0d	-0.3328556

fc2.weight f4 [4, 3]
0	0xc0c2db8a	-6.089299
1	0x407c1b06	3.9391494
2	0x3e99cec0	0.3004055
3	0xbf01606d	-0.5053776
4	0x403ca0fe	2.9473262
5	0x3f2a798a	0.66591704
6	0x402157bc	2.52098
7	0xbe31ab03	-0.17350392
8	0x3f209690	0.6272974
9	0x406851be	3.6299891
10	0xc0aed949	-5.464024
11	0xbe963601	-0.29338077

fc2.bias f4 [4]
0	0xbf5edceb	-0.87055844
1	0x3e8a1ffe	0.26977533
2	0x3f418fff	0.75610346
3	0xbfb0a0bf	-1.3799056
