2qubit 目标态一/learned_model/2qubit_target1_four_xz_MLP_episode10000_run3_model.pth (torch, 2856 bytes, 4 tensors)

fc1.weight f4 [6, 6]
-0.15686513 -2.5633504 0.076211385 0.00035301477 -2.6867158 2.6661325 0.111587465 -3.0887818
-0.08606435 0.02979405 -2.9864655 2.9903536 -0.092115745 2.1316698 -0.20979138 0.01951379
2.4305494 -2.6776814 0.33047798 0.026515648 0.48282406 -0.14333445 -0.12507011 -0.48459002
0.38862878 0.10603218 -0.22917114 0.42938486 0.4039805 -0.39789987 0.069626614 1.8979267
0.29774866 0.007720832 1.2399563 -0.876159
00000000: 41a1 20be ef0d 24c0 b714 9c3d d714 b939
00000010: 27f3 2bc0 eaa1 2a40 f887 e43d 9aae 45c0
00000020: 8242 b0bd a712 f43c 4022 3fc0 f461 3f40
00000030: 2ea7 bcbd 476d 0840 8dd3 56be 62db 9f3c
00000040: 1f8e 1b40 225f 2bc0 6934 a93e 5837 d93c
00000050: b734 f73e 44c6 12be 6112 00be 2f1c f8be
00000060: 5afa c63e 6627 d93d d7ab 6abe 55d8 db3e
00000070: 88d6 ce3e 88b9 cbbe 6698 8e3d 43ef f23f
00000080: 8372 983e 08ff fc3b e3b6 9e3f f54b 60bf

fc1.bias f4 [6]
0.63916624 0.94159925 5.5222025 0.48475018 0.13738996 3.2176468
00000000: 66a0 233f a60c 713f e2b5 b040 2d31 f83e
00000010: f4af 0c3e eded 4d40

fc2.weight f4 [4, 6]
-3.536105 -4.270539 3.5009632 0.40045232 0.28275195 1.8804898 -0.092124425 -0.16475664
2.6027606 0.30353358 -0.016817762 1.4850963 1.3290882 2.1329424 -0.27297714 0.09762962
-0.5631823 -0.0043467004 2.563772 2.2678645 -5.353913 -0.55156386 -0.16812198 -3.2198234
00000000: 8b4f 62c0 41a8 88c0 c80f 6040 1608 cd3e
00000010: ddc4 903e e4b3 f03f bbab bcbd f7b5 28be
00000020: a193 2640 c168 9b3e 67c5 89bc a317 be3f
00000030: 901f aa3f 2182 0840 a9c3 8bbe 0af2 c73d
00000040: b72c 10bf c46e 8ebb d714 2440 b124 1140
00000050: 4153 abc0 4a33 0dbf 2b28 2cbe 9611 4ec0

fc2.bias f4 [4]
0.88236976 1.5478432 -0.08852301 -2.084723
00000000: fce2 613f ba1f c63f 8d4b b5bd 1a6c 05c0
