2qubit 目标态一/learned_model/2qubit_target1_binary_xy_QNN_MLP_episode10000_run8_model.pth (torch, 3333 bytes, 5 tensors)

fc1.weight f4 [6, 6]
0.4251993 -0.093916155 0.14341967 0.31029266 0.4020749 0.12143156 -0.2717245 -0.22707957
0.34885988 -0.36742043 -0.90484077 -0.4811853 -0.2156602 0.08010895 -0.2641507 -0.25596797
-0.8692847 -0.25555083 -0.24971895 -0.088055864 -0.14453433 -0.28644532 -0.34579518 -0.014011518
-0.13862903 0.06913749 -0.3419644 0.051288974 0.105478495 0.25092122 0.7142834 0.076741025
-0.6394742 0.40220398 0.4262749 0.42550677
00000000: b9b3 d93e 1d57 c0bd 9bdc 123e aede 9e3e
00000010: c3dc cd3e 1cb1 f83d 791f 8bbe 8c87 68be
00000020: c39d b23e 881e bcbe a5a3 67bf eb5d f6be
00000030: 07d6 5cbe 2910 a43d c33e 87be 3c0e 83be
00000040: 7189 5ebf 8fd7 82be 53b6 7fbe a256 b4bd
00000050: cf00 14be f6a8 92be 110c b1be 9190 65bc
00000060: c5f4 0dbe f597 8d3d f515 afbe 6314 523d
00000070: 1c05 d83d bf78 803e 47db 363f 662a 9d3d
00000080: 95b4 23bf aeed cd3e b440 da3e 06dc d93e

fc1.bias f4 [6]
0.009164776 1.0972645 0.98063254 0.051333953 -0.13565803 -0.25092918
00000000: db27 163c 2a73 8c3f bc0a 7b3f 8d43 523d
00000010: f0e9 0abe ca79 80be

fc2.weight f4 [2, 6]
-0.32223356 1.2248832 1.0171839 0.0234336 -0.32054752 -0.7972067 0.11898464 -1.030316
-0.87321866 0.31643775 0.1699481 0.7440653
00000000: ccfb a4be f9c8 9c3f 1533 823f d2f7 bf3c
00000010: ce1e a4be bd15 4cbf 38ae f33d 65e1 83bf
00000020: 428b 5fbf 2104 a23e e006 2e3e 107b 3e3f

fc2.bias f4 [2]
0.50851727 -0.55276287
00000000: 302e 023f de81 0dbf

qlayer1.weights f4 [1, 6]
-0.0200394 -0.0251349 6.330998 6.298177 0.043842036 6.2951937
00000000: ab29 a4bc b5e7 cdbc 8997 ca40 aa8a c940
00000010: b593 333d 3a72 c940
