2qubit 目标态一/learned_model/2qubit_target1_binary_yz_QNN_episode10000_run6_model.pth (torch, 3169 bytes, 5 tensors)

fc1.weight f4 [6, 6]
0	0xbecb7d77	-0.3974416
1	0xbe5ef5dc	-0.21773475
2	0x3d8f9fd6	0.07012908
3	0x3d82a68f	0.06379425
4	0x3d50e465	0.050999064
5	0xbdcf21a3	-0.101138376
6	0xbe7b984a	-0.24569812
7	0x3a9043c6	0.0011006526
8	0x3e2a9176	0.16657051
9	0x3eb670ac	0.35632837
10	0x3d8446cb	0.06458815
11	0x3e70e282	0.23523906
12	0xbda6faa9	-0.081532784
13	0xbddc72b0	-0.107640624
14	0x3ddfa871	0.109207995
15	0xbb4ae22a	-0.0030957558
16	0x3e1c0735	0.15237124
17	0xbe8cd381	-0.27505115
18	0xbcdcf194	-0.026970662
19	0xbd7ff4fa	-0.062489487
20	0x3ec1e30a	0.3786853
21	0x3e686b42	0.22697166
22	0x3ece940c	0.40347326
23	0x3e79acdf	0.24382351
24	0xbea60d85	-0.3243219
25	0x3e02cf5c	0.12774414
26	0x3ebf4fcf	0.37365577
27	0xbe8e2489	-0.2776225
28	0x3e694e21	0.2278371
29	0xbea2d345	-0.3180181
30	0xbdda5166	-0.10660057
31	0x3ebd9aaf	0.37032077
32	0xbe7430c1	-0.23846723
33	0x3dac31cf	0.08407938
34	0xbe0fae99	-0.14031447
35	0x3ebdb13f	0.3704929

fc1.bias f4 [6]
0	0xbeb80268	-0.35939336
1	0xbe72deca	-0.237178
2	0x3e01bf08	0.12670529
3	0xbd0fc7df	-0.03510272
4	0xbec423d0	-0.38308573
5	0xbd832800	-0.06404114

fc2.weight f4 [2, 6]
0	0xbdec3075	-0.1153268
1	0xbeb48152	-0.35254914
2	0x3d076343	0.033053648
3	0xbebb2510	-0.36551714
4	0xbebe4e0a	-0.37168914
5	0xbdcdd328	-0.100500405
6	0xbe57b73d	-0.21065994
7	0x3ea9e140	0.33179665
8	0x3bf766d3	0.0075500994
9	0x3ea36099	0.31909636
10	0xbecd219b	-0.400647
11	0xbd55b6d6	-0.05217632

fc2.bias f4 [2]
0	0x3e585225	0.21125086
1	0xbec714e4	-0.38883126

qlayer1.weights f4 [1, 6]
0	0x40494362	3.1447377
1	0x409cc740	4.8993225
2	0x40489ef4	3.1347017
3	0x4047973f	3.1186063
4	0x40681a8a	3.6266198
5	0x402b632b	2.6779277
