额外对比/1qubit 额外案例/1MLP/learned_model/MLP_1_episode1000_run9_model.pth (torch, 2360 bytes, 4 tensors)

fc1.weight f4 [3, 3]
0.8412362 0.3998182 0.38910142 -1.1356975 -0.118947625 0.24056086 2.5368557 -0.42024893
0.6012379
00000000: 415b 573f f9b4 cc3e 4d38 c73e 895e 91bf
00000010: d09a f3bd 9655 763e d85b 2240 de2a d7be
00000020: baea 193f

fc1.bias f4 [3]
0.048601367 0.9506615 0.57074994
00000000: 3a12 473d 8d5e 733f ab1c 123f

fc2.weight f4 [2, 3]
0.298329 -0.8198246 2.341773 -0.84143496 1.155824 -1.3188905
00000000: 94be 983e 06e0 51bf 9cdf 1540 4868 57bf
00000010: 0af2 933f 67d1 a8bf

fc2.bias f4 [2]
-0.72292066 0.90952086
00000000: 5411 39bf 5cd6 683f
