额外对比/1qubit 测量算符/1qubit 目标态一 MLP四分类/1qubit 目标态一 四分类 1X/learned_model/1qubit_target1_four_xy_MLP_episode10000_run10_model.pth (torch, 2672 bytes, 4 tensors)

fc1.weight f4 [3, 3]
0	0x3ebaa93a	0.36457235
1	0x3e828216	0.25489873
2	0xbf0412a8	-0.5159097
3	0xbe87592b	-0.26435217
4	0x3ee7957c	0.45231235
5	0x3ee325bf	0.44364735
6	0x3f136486	0.5757526
7	0xbee7455e	-0.4517011
8	0xbd54367f	-0.051809784

fc1.bias f4 [3]
0	0xbdd3f341	-0.103491314
1	0xbe2cfce9	-0.16893353
2	0xbe9b8f75	-0.30382887

fc2.weight f4 [4, 3]
0	0x3f00f722	0.50377095
1	0xbe358ae3	-0.17728762
2	0xbd25d1d2	-0.040483303
3	0x3e2827ec	0.16421479
4	0x3f3bf6c3	0.73423404
5	0xbd99b4e9	-0.07505209
6	0x3efd7c52	0.4950891
7	0xbd842ffb	-0.06454464
8	0xbea999ea	-0.3312524
9	0x3f07de56	0.5307363
10	0xbe14f4a9	-0.14546455
11	0x3e9cc7c4	0.3062116

fc2.bias f4 [4]
0	0x3e9331a8	0.28748822
1	0xbec627ae	-0.38702148
2	0x3e532554	0.20619708
3	0x3e86b6aa	0.26311237
