1qubit 目标态一/learned_model/1qubit_target1_binary_yz_QNN_episode10000_run7_model.pth (torch, 2977 bytes, 5 tensors)

fc1.weight f4 [4, 4]
0	0x3e869d32	0.26291806
1	0x3eac4d62	0.33652788
2	0x3ea2ccda	0.31796914
3	0x3eff1638	0.4982164
4	0x3e9ba21e	0.30397123
5	0x3d032df0	0.03202623
6	0xbedd287a	-0.43194944
7	0xbe983f4c	-0.29735792
8	0x3e31d2fc	0.1736564
9	0xbe90c682	-0.2827645
10	0xbe79af40	-0.24383259
11	0x3e789e04	0.24279028
12	0xbeea7946	-0.4579565
13	0x3d68d5c0	0.056844473
14	0xbea759ca	-0.3268569
15	0x3dd68bd8	0.10475892

fc1.bias f4 [4]
0	0x3ef3e06c	0.47632158
1	0x3dc84af8	0.09779924
2	0xbec49620	-0.38395786
3	0x3ef8b2b2	0.48573834

fc2.weight f4 [2, 4]
0	0xbdb97b68	-0.09056741
1	0xbe85aedc	-0.2610997
2	0x3aa5f800	0.0012662411
3	0xbe1b5460	-0.15168905
4	0x3d9d2b40	0.07674265
5	0xbed61e16	-0.4181983
6	0xbefdab3c	-0.49544704
7	0x3ebca2e8	0.36843038

fc2.bias f4 [2]
0	0xbed83954	-0.42231238
1	0xbe64bac8	-0.22336876

qlayer1.weights f4 [1, 4]
0	0x3aee44eb	0.0018178498
1	0x3fc15936	1.510535
2	0x4009102e	2.1416125
3	0x40a90f86	5.283145
