1qubit 目标态一/learned_model/1qubit_target1_four_xy_QNN_episode10000_run7_model.pth (torch, 2959 bytes, 5 tensors)

fc1.weight f4 [4, 4]
00000000: ae0c b73e 525f d83e d07e f83d 2e1d c0be
00000010: e807 aabd b047 9d3e 80b9 493e 3a7e dfbe
00000020: 5282 ab3e ec6b 2fbe f841 003e 4ac7 dc3e
00000030: 1005 fb3e f4a7 95be 4acf ecbe c4c3 64be
0.3575186 0.42260224 0.121335626 -0.37522262 -0.08302289 0.30718756 0.19699669 -0.4365099
0.33497864 -0.17131013 0.12525165 0.43120795 0.490273 -0.292297 -0.462519 -0.22340304

fc1.bias f4 [4]
00000000: 3029 b33e 4cd0 b2be 0cb3 263e 34b9 63be
0.3499236 -0.34924543 0.16279238 -0.22238618

fc2.weight f4 [4, 4]
00000000: 9e80 983e 685e d0be 5c15 133e a04a 98bd
00000010: fa26 cc3e 9c80 57be 801f cfbc 82ed c6be
00000020: b020 ce3d 82e8 b8be a019 1a3d 8c61 b6be
00000030: 4885 22be 1421 05be 7ab2 f9be 4024 7abd
0.29785627 -0.40697026 0.14363617 -0.074361086 0.39873487 -0.21045154 -0.025283575 -0.3885308
0.100648284 -0.3611489 0.037622094 -0.35621297 -0.15871155 -0.130009 -0.4876898 -0.061069727

fc2.bias f4 [4]
00000000: 30ac 5c3d 6855 dbbd dc86 93be 8c05 303e
0.05387515 -0.10709649 -0.28813827 0.17189616

qlayer1.weights f4 [1, 4]
00000000: 1695 1640 e391 4b3e 0762 8940 0227 de40
2.3528495 0.1987987 4.293216 6.9422617
