1qubit 目标态一/learned_model/1qubit_target1_binary_xy_MLP_episode10000_run4_model.pth (torch, 2680 bytes, 4 tensors)

fc1.weight f4 [4, 4]
0	0xbddee5b0	-0.10883653
1	0xbeed21f6	-0.46314973
2	0xbdf3dbd8	-0.11907166
3	0xbe5edb08	-0.21763241
4	0x3edcd4e0	0.4313116
5	0x3ecf6b3c	0.405115
6	0xbef1ee28	-0.4725201
7	0x3db27048	0.08712822
8	0x3d26d570	0.040730894
9	0x3e36bb34	0.1784485
10	0xbebe56fa	-0.37175733
11	0xbebc51a6	-0.36781043
12	0xbeeeb3c3	-0.46621522
13	0xbf61fa76	-0.882728
14	0xbe9d2131	-0.30689386
15	0xbeb8aa19	-0.36067274

fc1.bias f4 [4]
0	0xbe33efd4	-0.17571956
1	0xbed68d2c	-0.4190458
2	0xbecf396e	-0.40473503
3	0x3d96abad	0.07356963

fc2.weight f4 [2, 4]
0	0x3ee3177a	0.4435385
1	0xbdef2270	-0.1167649
2	0xbed44f3a	-0.41466695
3	0xbf48ae37	-0.7839083
4	0x3ec6470a	0.38726074
5	0xbdb57c88	-0.08861643
6	0xbe98a4a6	-0.29813117
7	0x3ee8e5e9	0.45487908

fc2.bias f4 [2]
0	0xbe1249dc	-0.14285988
1	0xbe47ca30	-0.19510722
