1qubit 目标态一/learned_model/1qubit_target1_four_yz_QNN_episode10000_run3_model.pth (torch, 2959 bytes, 5 tensors)

fc1.weight f4 [4, 4]
0.29240853 -0.42202544 -0.4952212 0.036954284 -0.1615026 0.08524418 0.34164572 -0.09520775
-0.16899282 -0.07711381 -0.2348262 -0.4815759 -0.19168872 -0.41956335 -0.41373593 0.21784443
00000000: 92b6 953e b813 d8be a28d fdbe 605d 173d
00000010: f060 25be 8094 ae3d 30ec ae3e 48fc c2bd
00000020: 740c 2dbe d8ed 9dbd 4876 70be 1e91 f6be
00000030: 0c4a 44be 02d1 d6be 32d5 d3be 9c12 5f3e

fc1.bias f4 [4]
-0.30332774 0.038562894 0.2634127 0.4556257
00000000: c64d 9bbe 20f4 1d3d 08de 863e c647 e93e

fc2.weight f4 [4, 4]
0.16709691 -0.047344267 -0.4531272 0.47440463 0.37266815 -0.344729 0.099526584 0.46761823
-0.27871925 0.1484949 0.088115096 -0.39712423 -0.17249465 -0.35538918 0.09758532 0.4153517
00000000: 741b 2b3e 10ec 41bd 4a00 e8be 2ae5 f23e
00000010: 5cce be3e 5280 b0be 98d4 cb3d a86b ef3e
00000020: 4ab4 8ebe 0c0f 183e b075 b43d de53 cbbe
00000030: 70a2 30be 92f5 b5be d0da c73d faa8 d43e

fc2.bias f4 [4]
-0.4141149 0.092268944 -0.25401968 -0.38967967
00000000: de06 d4be 80f7 bc3d de0e 82be 1884 c7be

qlayer1.weights f4 [1, 4]
3.1439986 1.5495533 2.1416037 -0.9999974
00000000: 4637 4940 c357 c63f 0910 0940 d4ff 7fbf
