1qubit 目标态一/learned_model/1qubit_target1_four_xz_MLP_episode10000_run4_model.pth (torch, 2664 bytes, 4 tensors)

fc1.weight f4 [4, 4]
000000 b2 a7 91 3d cb 0c 68 c0 c4 d4 84 3f a9 65 85 3f
       0.071120635 -3.6257808 1.0377431 1.0421649
000010 bd 78 ca 3c 38 ec c2 40 b1 3b 03 40 4b 5a e5 3f
       0.024715776 6.0913353 2.0505183 1.791818
000020 91 3b fd bc e1 b2 cf c0 c2 b7 c3 3f 30 f4 ae 3f
       -0.030912193 -6.490586 1.5290453 1.366827
000030 74 9b c5 be d8 a5 50 3e b0 70 46 bd 6e d2 a9 be
       -0.38595164 0.20375764 -0.04844731 -0.33168358

fc1.bias f4 [4]
000000 24 61 ae 3e 00 0b d0 3f 6c 27 ae 3f a6 45 e9 be
       0.34058487 1.6253357 1.3605781 -0.4556095

fc2.weight f4 [4, 4]
000000 cd 13 47 c0 79 f1 61 40 08 9b a4 c0 7c f2 92 be
       -3.1105835 3.5303633 -5.1439247 -0.28700626
000010 69 d0 71 3c 90 8d 2c 40 1c 5a 16 bf de 66 c5 3e
       0.0147591615 2.6961403 -0.58731246 0.38555044
000020 8d 9b 52 3f fa 7c 83 bd 81 6c 2e 40 d6 5d f8 be
       0.822686 -0.06420322 2.7253726 -0.4850909
000030 6e 4c 10 40 38 6a a7 c0 48 c6 6d 40 54 db 04 3e
       2.254665 -5.231716 3.7152271 0.12974292

fc2.bias f4 [4]
000000 bb 9f d2 3d 8c 53 37 3f 06 51 05 be d2 73 93 bf
       0.102843724 0.7161186 -0.13019189 -1.151972
