1qubit 目标态一/learned_model/1qubit_target1_binary_yz_QNN_MLP_episode10000_run1_model.pth (torch, 3205 bytes, 5 tensors)

fc1.weight f4 [4, 4]
0.23685181 -0.1829204 0.09553099 0.43524408 -2.0956137 0.2699981 -0.70797795 0.50882274
-0.091094196 0.47655386 0.31939977 0.10399282 -3.1607237 1.8986086 -2.0542896 1.4781282
00000000: 4889 723e 7c4f 3bbe c0a5 c33d 50d8 de3e
00000010: 891e 06c0 313d 8a3e 0b3e 35bf 3542 023f
00000020: 988f babd defe f33e 5e88 a33e 30fa d43d
00000030: 4c49 4ac0 9b05 f33f 7b79 03c0 4e33 bd3f

fc1.bias f4 [4]
-0.44634974 0.34507638 -0.49412745 0.75370055
00000000: f487 e4be daad b03e 46fe fcbe 85f2 403f

fc2.weight f4 [2, 4]
-0.36639756 -1.89773 0.26111782 -3.4934473 -0.37181056 1.1836354 -0.21766442 2.8335738
00000000: 7698 bbbe d1e8 f2bf 3cb1 853e a494 5fc0
00000010: f45d bebe 5d81 973f 6ce3 5ebe 4659 3540

fc2.bias f4 [2]
2.991003 -2.907308
00000000: 986c 3f40 5611 3ac0

qlayer1.weights f4 [1, 4]
3.1299305 4.7031016 2.1417568 2.141399
00000000: c850 4840 cf7f 9640 8b12 0940 ae0c 0940
