2qubit 目标态纠/learned_model/1qubit_target2_binary_xy_QNN_episode10000_run3_model.pth (torch, 3169 bytes, 5 tensors)

fc1.weight f4 [6, 6]
000000 23 28 72 be 09 a2 a0 3c 5a bb c7 3e 9e 84 c2 3e
       -0.23648123 0.019608514 0.39010125 0.37991804
000010 b4 d9 d0 3e ce e2 45 be 18 9b a0 bc 0f ac 94 be
       0.40791094 -0.193248 -0.019605204 -0.2903752
000020 d0 83 c5 be 56 31 fa bd 8d dc 7d be 99 10 29 be
       -0.38577127 -0.12216441 -0.24791165 -0.16510238
000030 d4 11 87 3e 62 b8 22 be 52 26 2f 3e b0 a4 6a 3e
       0.2638079 -0.15890649 0.17104462 0.22914386
000040 47 3b 79 be a4 2b c6 bd 77 0d 70 bd 34 7b 86 be
       -0.24339019 -0.096762925 -0.05860659 -0.26265872
000050 60 75 ac 3d 0a 44 23 3e a1 15 5e bd 3e 0d 9b bd
       0.08420825 0.15943924 -0.054219846 -0.07570885
000060 c8 6e 2b be eb 04 b0 3d 6c 01 c2 3e e8 a6 45 3d
       -0.16741478 0.08594688 0.3789171 0.048254877
000070 10 c6 7b 3e ac f4 2c be e2 60 db 3c eb cd 98 3d
       0.24587274 -0.1689021 0.026779596 0.07461151
000080 98 7a 8c 3b 4d 91 aa be d0 b2 3b be ef 8e 2f be
       0.0042870753 -0.3331398 -0.1832993 -0.17144369

fc1.bias f4 [6]
000000 97 94 49 3e 17 01 95 3c 48 ee c3 bd f6 75 8c be
       0.19685589 0.018188996 -0.09566933 -0.27433747
000010 23 fc 8b bd 4a 20 d7 bc
       -0.06835201 -0.026260514

fc2.weight f4 [2, 6]
000000 ce 49 d6 bd 71 24 59 be 6a e8 b0 be 0a d0 05 be
       -0.10463296 -0.21205308 -0.34552318 -0.13067642
000010 d4 cc 95 bd 5d 62 f6 ba a8 ad c1 3d b1 3d 2b 3e
       -0.073144585 -0.0018797625 0.094569504 0.16722752
000020 fb ee b5 3d 07 dd ad be a6 1f aa 3e c3 07 9c 3e
       0.088834725 -0.33957693 0.3322727 0.30474672

fc2.bias f4 [2]
000000 03 ff ce be 0b cd 9d be
       -0.40428934 -0.30820498

qlayer1.weights f4 [1, 6]
000000 12 7a a7 40 3f 5f 4a 40 0b 4f c7 40 50 60 09 40
       5.233651 3.1620634 6.228399 2.1465034
000010 0d 9c 45 40 78 63 82 3f
       3.0876496 1.0186605
