2qubit 目标态纠/learned_model/1qubit_target2_binary_yz_QNN_episode10000_run10_model.pth (torch, 3178 bytes, 5 tensors)

fc1.weight f4 [6, 6]
000000 9f bb f5 3d 7f f8 88 be 19 e6 13 be ce b2 cc 3e
       0.119986765 -0.26752087 -0.14443244 0.39980167
000010 37 51 be be c4 93 42 be cb fb c0 3e 96 7f 58 bc
       -0.37171337 -0.1900168 0.37692103 -0.013214013
000020 b2 ed 39 3e 71 5e b1 3e 71 d9 00 be 53 f9 9e 3e
       0.1815708 0.34642366 -0.12582947 0.31049594
000030 23 03 c5 be 66 a4 36 be 78 e9 1b be 41 ed 57 be
       -0.38478956 -0.1783615 -0.1522578 -0.21086599
000040 66 be c8 3d 80 de 82 be 24 51 11 3e 73 2a 70 be
       0.098019406 -0.2556038 0.14191109 -0.23453693
000050 f5 bf 9a bd da d3 78 be 45 26 18 3e 9f fe 4d be
       -0.07556144 -0.24299565 0.14858349 -0.20116661
000060 95 b1 a0 3e 6a 20 d8 3d 91 11 12 be d4 5e 80 be
       0.31385484 0.105530575 -0.14264514 -0.25072348
000070 75 3c 80 be a6 12 46 3e 68 50 b9 be 38 eb 23 3e
       -0.25046125 0.19343051 -0.36194158 0.16007698
000080 9d c0 bf be fd 0d cb 3e dd e8 b1 3e 8b e9 99 be
       -0.3745164 0.3965911 0.34747973 -0.30060992

fc1.bias f4 [6]
000000 e8 3b 5d 3e eb f1 d0 3d 81 09 cd 3d f0 95 58 3e
       0.21604884 0.10202392 0.10011578 0.21150947
000010 e8 0e 14 be 35 2b 58 3e
       -0.14458811 0.21110232

fc2.weight f4 [2, 6]
000000 4f 9e f3 bd 64 6f 28 3e fc 4a a4 be 24 79 14 3e
       -0.11895429 0.16448742 -0.3208846 0.14499336
000010 ec 68 ca 3e 0c 18 32 be 73 ff b2 be 06 59 a0 3e
       0.39533174 -0.17391986 -0.34960517 0.3131792
000020 25 5f 1c 3d 25 59 47 3e 38 94 9b 3e 5b 35 c1 3e
       0.038176674 0.194676 0.3038652 0.3773602

fc2.bias f4 [2]
000000 c8 0c 2a 3e ff 8f 7b 3d
       0.16606438 0.061416622

qlayer1.weights f4 [1, 6]
000000 ad b1 84 3f 03 8a 48 40 c9 e0 40 40 93 fa 84 40
       1.0366722 3.1334236 3.0137198 4.1555877
000010 73 68 48 40 40 e8 0d 40
       3.131375 2.2173004
