2qubit 目标态纠/learned_model/2qubit_target2_four_xy_QNN_episode10000_run10_model.pth (torch, 3224 bytes, 5 tensors)

fc1.weight f4 [6, 6]
00000000: 677c 16bd 0560 bc3e 2a84 bdbe 9fa2 253e
00000010: 54ca 8d3d 4b80 80bd f0dd 67be 43c7 333d
00000020: 49be 5ebe c41b 753c 0ac9 483e 44dc fabd
00000030: 6e4f 52bd 4e94 6abc 9d39 8bbe 4f41 94be
00000040: 5309 2ebe 89f1 c03e 3a7d 6e3d 13c9 4ebe
00000050: 4434 58bc a4b7 7dbe 3a9a c0be 5057 333e
00000060: d735 cc3e 6d6b bc3e a78c 693e 76cf 90be
00000070: 6f30 acbd d3e0 0bbe 75e5 933d 4826 e1bd
00000080: ea93 dbbc 05f9 903e 0bb3 9bbe 8dda ba3e
-0.036739733 0.36792007 -0.37014896 0.16175316 0.06923357 -0.0627447 -0.22643256 0.043891203
-0.21752276 0.014960233 0.1960794 -0.122490436 -0.05134528 -0.014317585 -0.27192393 -0.28956077
-0.16995744 0.37684277 0.058224894 -0.20193891 -0.013196055 -0.24777085 -0.37617666 0.17513776
0.39884827 0.3680071 0.22807561 -0.2828328 -0.084076755 -0.13659982 0.072215 -0.1099363
-0.02680393 0.28314987 -0.30410036 0.36494866

fc1.bias f4 [6]
00000000: 10b9 1cbe 709b 65bd 2a55 873e 1fbe 233d
00000010: 6db2 6fbe c9ab 7abd
-0.1530497 -0.05605644 0.26432163 0.039976235 -0.23407908 -0.061198983

fc2.weight f4 [4, 6]
00000000: 6f2d be3e 6ade aabe f181 71be f5a8 853e
00000010: 1ba7 bcbe ebce 77be bff0 21be b448 53be
00000020: 4434 c0be 8196 a83e e610 e1ba 75f1 a3be
00000030: 2bb3 17be 587d f2bd 1a3d 39be 7b5f 123c
00000040: 42e4 78be 8775 233e 44b2 7a3e 11f7 92be
00000050: a982 b43e 0366 3f3e fcbe 3fbe d91e 17be
0.37144038 -0.33372813 -0.23584725 0.26105466 -0.3684624 -0.24200027 -0.15814494 -0.20633203
-0.37539876 0.32927325 -0.0017171174 -0.32020155 -0.14814441 -0.11840314 -0.18089715 0.008933897
-0.24305823 0.15962802 0.24482065 -0.28704122 0.35255936 0.18691258 -0.18725199 -0.14757861

fc2.bias f4 [4]
00000000: 8ea6 283d d256 a83d 2c0b 01be f8d3 453d
0.041174464 0.08219685 -0.12601918 0.048297852

qlayer1.weights f4 [1, 6]
00000000: 9238 f13f 9826 4740 43e0 5c40 fb27 f940
00000010: c20d c940 96b9 d640
1.8845389 3.1117306 3.4511878 7.7861304 6.2829294 6.7101545
