2qubit 目标态纠/learned_model/2qubit_target2_four_xy_QNN_episode10000_run9_model.pth (torch, 3215 bytes, 5 tensors)

fc1.weight f4 [6, 6]
-0.25742593 0.2703921 0.011830508 -0.33618262 -0.052466277 0.17341469 0.38374296 -0.012058609
0.31605822 0.2887033 0.16414918 -0.21116598 0.120274045 -0.3121803 -0.31073722 -0.18123762
-0.25517213 0.20983104 0.39500737 -0.15404193 -0.3612361 0.37838176 0.14478561 -0.032398444
-0.33454394 0.07499277 0.3870302 0.010492214 -0.115881406 -0.0019289162 0.36132577 0.31672046
0.15810367 0.33763134 -0.3566008 0.3196459
00000000: 55cd 83be d570 8a3e bfd4 413c 2120 acbe
00000010: e1e6 56bd 9f93 313e f579 c43e 7991 45bc
00000020: 62d2 a13e ebd0 933e b916 283e e53b 58be
00000030: 3d52 f63d 19d6 9fbe f318 9fbe 5b96 39be
00000040: eca5 82be f3dd 563e 683e ca3e 2bbd 1dbe
00000050: f0f3 b8be 41bb c13e ae42 143e 3bb4 04bd
00000060: 5849 abbe cf95 993d d328 c63e 89e7 2b3c
00000070: 3b53 edbd b0d3 fcba b1ff b83e 2f29 a23e
00000080: eee5 213e 04de ac3e 6194 b6be a1a8 a33e

fc1.bias f4 [6]
-0.3599525 -0.29448166 -0.34264266 -0.22561044 -0.3962335 -0.26777178
00000000: b24b b8be 4dc6 96be dc6e afbe 6c06 67be
00000010: 1edf cabe 6219 89be

fc2.weight f4 [4, 6]
0.047016304 0.03379183 0.32678798 0.27813974 0.33646917 0.29684016 -0.09198231 -0.15069452
-0.37724578 -0.24842557 -0.0168563 0.17239513 -0.088876486 -0.018771296 -0.010844076 0.3143656
0.06932735 -0.08348574 0.19837774 0.28425235 -0.21832591 -0.21167965 0.3928842 -0.28326416
00000000: 2b94 403d 4d69 0a3d c150 a73e 5568 8e3e
00000010: b045 ac3e 6ffb 973e 3961 bcbd aa4f 1abe
00000020: 5c26 c1be 4663 7ebe 3916 8abc 5988 303e
00000030: e004 b6bd 43c6 99bc 5aab 31bc 87f4 a03e
00000040: 7ffb 8d3d 92fa aabd 8923 4b3e 8689 913e
00000050: d490 5fbe 8dc2 58be 1e28 c93e 0008 91be

fc2.bias f4 [4]
0.17926632 -0.4000584 -0.088695884 -0.2743108
00000000: 9791 373e 74d4 ccbe 30a6 b5bd 7772 8cbe

qlayer1.weights f4 [1, 6]
1.8841048 3.1219406 3.4516625 1.5041711 6.2821426 0.4292266
00000000: 592a f13f e0cd 4740 0ae8 5c40 ae88 c03f
00000010: 5007 c940 97c3 db3e
