2qubit 目标态纠/learned_model/2qubit_target2_four_xy_QNN_MLP_episode10000_run8_model.pth (torch, 3315 bytes, 5 tensors)

fc1.weight f4 [6, 6]
000000 46 f5 96 3d 59 a3 0d 3e 02 45 9d 3e 52 5b 0c 3e
       0.07371001 0.13831843 0.3071671 0.13706711
000010 ac 6c 1d 3e 76 18 cf 3d d8 d6 2b 40 f6 47 d0 3f
       0.15373486 0.101120874 2.684988 1.6271961
000020 d6 42 3b c0 c7 39 a6 3f 19 a5 67 3e 57 e1 12 40
       -2.9259543 1.2986382 0.22621574 2.2950037
000030 28 10 90 bf 26 3d ad 3d 4e 12 cc 3d 8a 73 26 bf
       -1.125493 0.08458929 0.09964429 -0.6502005
000040 74 45 a8 be 94 28 e2 be f5 35 b9 3e 6f 41 d4 be
       -0.3286549 -0.44171584 0.36173978 -0.41456172
000050 26 9e 85 be 7c 8a b6 be 18 1e 2c 3e 27 b6 b3 3e
       -0.2609722 -0.3565253 0.16808355 0.3509991
000060 26 b2 3b c0 7a 80 b3 3e c7 c9 83 3e 3c 69 10 c0
       -2.9327483 0.35058957 0.2573988 -2.256423
000070 cf bc a5 bf 99 00 23 c0 87 9a 7c be bb 14 13 3d
       -1.2948245 -2.5469115 -0.24668323 0.035908442
000080 40 54 97 bd 50 98 25 bd 80 d9 c3 bc 4b 24 be be
       -0.07389116 -0.04042846 -0.023907423 -0.37137064

fc1.bias f4 [6]
000000 d5 2e c9 be d9 17 9b 3f 80 ea 5c 3e 90 da be be
       -0.39293543 1.2116653 0.2157383 -0.37276125
000010 5a ce 09 3f 85 07 2f be
       0.5383049 -0.17092712

fc2.weight f4 [4, 6]
000000 55 66 9a be a0 06 10 40 1e 23 55 bf ef c6 73 3d
       -0.30156198 2.2504044 -0.8325671 0.05951589
000010 9f c4 4c c0 23 8a e8 bd a8 ae ca 3e 78 72 bb 3f
       -3.1995008 -0.113544725 0.39586377 1.4644308
000020 c5 02 2a bd 13 eb c6 3e ca 2c 77 bf 8b e6 d4 3d
       -0.041506547 0.38851222 -0.9655272 0.10395535
000030 9e 6d 90 be f1 e8 17 be 88 24 17 3f 3b 2b 6a be
       -0.2820863 -0.14834954 0.5904012 -0.22868054
000040 e0 e5 9f 3f ab 52 b9 be a9 7b 73 be fd d1 8c c0
       1.2492027 -0.36195883 -0.23777641 -4.4006333
000050 0a e6 87 3f b1 d6 60 be ba 2d 43 40 3d bf 48 bd
       1.0617077 -0.21956898 3.049666 -0.049010504

fc2.bias f4 [4]
000000 cf 49 2d 3f 8c 99 79 3f 09 a4 44 be 4e 53 75 bf
       0.6769075 0.9749992 -0.192032 -0.9583024

qlayer1.weights f4 [1, 6]
000000 d1 9e 22 bc e6 25 08 3c eb 87 4a 40 53 dc a3 40
       -0.00992556 0.008309817 3.1645458 5.120645
000010 87 f8 c8 40 b3 82 fd 40
       6.280338 7.9222045
