额外对比/1qubit 额外案例/3QCNN/learned_model/QNN_MLP_episode1000_run7_model.pth (torch, 2651 bytes, 5 tensors)

fc1.weight f4 [3, 3]
0.063312665 -1.5959526 -1.3467348 -0.33705765 1.5621178 0.17572889 -0.39102188 -0.8458813
-0.31333658
00000000: 12aa 813d 2d48 ccbf ce61 acbf d292 acbe
00000010: 7af3 c73f 46f2 333e 0534 c8be ad8b 58bf
00000020: a76d a0be

fc1.bias f4 [3]
1.1899257 0.8389301 0.31549835
00000000: 7c4f 983f 1fc4 563f 0089 a13e

fc2.weight f4 [2, 3]
1.8724693 -0.8172933 0.45625144 -1.3803298 1.5000591 -0.34676075
00000000: 13ad ef3f 223a 51bf ca99 e93e a6ae b0bf
00000010: f001 c03f a08a b1be

fc2.bias f4 [2]
-0.6831569 0.40107152
00000000: 5fe3 2ebf 3f59 cd3e

qlayer1.weights f4 [1, 3]
4.690221 3.1770053 5.024542
00000000: 4a16 9640 0e54 4b40 0cc9 a040
